mnist_model.tflite (tflite, 56696 bytes, 4 tensors)

arith.constant f4 [10, 1352]
0	0x3cc89e72	0.024489615
1	0x3da9956a	0.082804516
2	0x3d882d58	0.06649274
3	0xbd33b344	-0.043872133
4	0x3c963814	0.018337287
5	0xbd2eee75	-0.04270788
6	0x3ca6facc	0.020383261
7	0xbce97fc3	-0.028503304
8	0x3d0360e1	0.032074813
9	0x3d26cf37	0.04072496
10	0x3c4c6279	0.01247465
11	0xbc95bee8	-0.018279508
12	0xbce79708	-0.02827026
13	0x3d2578d0	0.04039842
14	0xbcf124b1	-0.029436441
15	0x3cbbe5ed	0.022936786
16	0xbc2b9078	-0.010471456
17	0x3c71859b	0.014741327
18	0x3cb47f27	0.022033287
19	0x3c982cdb	0.018576076
20	0xbd4cccb0	-0.049999893
21	0xbd7841ef	-0.060609754
22	0x3c97f346	0.018548619
23	0x397510a4	0.0002337122
24	0x3b511ee3	0.003190928
25	0x3d326c68	0.043560416
26	0xbcd0a8e6	-0.025471162
27	0xbc8367bf	-0.01604068
28	0x3c4a101b	0.012332941
29	0xbd083f4b	-0.033263486
30	0x3bfdd05c	0.0077457856
31	0x3c7476bc	0.014920887
32	0xbd1aecea	-0.037823595
33	0x3ddf6c21	0.10909296
34	0xbd5717ae	-0.052512817
35	0xba5eb0d4	-0.00084949774
36	0xbd7627a3	-0.060096394
37	0x3c1c0016	0.009521505
38	0xbd3d60d3	-0.046234917
39	0x3cd59d57	0.026076002
40	0xbd6d8e9a	-0.057997324
41	0x3dee37f8	0.11631769
42	0x3d790837	0.06079885
43	0xbc964a30	-0.018345922
44	0xbd386275	-0.04501577
45	0xbc0b3c3f	-0.0084982505
46	0x3c52a14e	0.012855841
47	0xbd8851e4	-0.066562444
48	0x3ced6722	0.028979842
49	0x3e6960af	0.22790788
50	0x3cb26834	0.021778204
51	0xbd306551	-0.043065373
52	0xbddf7115	-0.109102406
53	0xbbb856af	-0.005625568
54	0xbda47892	-0.080308095
55	0xbd61b066	-0.055099867
56	0xbd5ff74f	-0.05467921
57	0x3e7c7694	0.24654609
58	0x3bc58f3d	0.006029038
59	0x3d951a16	0.07280366
60	0xbd81b5c7	-0.063334994
61	0xbd90aafd	-0.070638634
62	0xbd323c0c	-0.043514296
63	0xbd5bcdcd	-0.053663064
64	0xbc8fb778	-0.01754354
65	0x3e24544e	0.16047785
66	0xbd376fc2	-0.044784315
67	0xbc96b388	-0.018396154
68	0xbc8d8b1a	-0.017278243
69	0xbc0b93d2	-0.00851913
70	0xbdb637c5	-0.08897356
71	0x3cba87b0	0.022769779
72	0x3c3bf1eb	0.011471252
73	0x3dd61bdd	0.10454533
74	0xbd762a33	-0.060098838
75	0x3cf82d28	0.03029497
76	0xbdeabe50	-0.114620805
77	0xbd9d9315	-0.07694069
78	0x3c20ff02	0.009826424
79	0x3d1bea96	0.038065515
80	0x3d34ff19	0.044188593
81	0x3dc68504	0.096933395
82	0x3d7e2682	0.062048443
83	0xbd01fc48	-0.031734735
84	0x3bdb6063	0.00669484
85	0xbda3a91e	-0.07991241
86	0x3d0e29eb	0.034707945
87	0xbcd82899	-0.026386546
88	0xbd3343e1	-0.043765906
89	0x3d2a083d	0.041511763
90	0xbc325b7a	-0.0108860675
91	0x3d2e8591	0.042607848
92	0xbc12e9c4	-0.008966867
93	0x3c0fb2a0	0.008770615
94	0x3d264b27	0.040599015
95	0x3d6cab25	0.057780404
96	0xbcef8276	-0.029237013
97	0x3d4b3272	0.049608655
98	0x3d307c3f	0.04308724
99	0x3d5e2ec5	0.05424382
100	0xbcaef1d9	-0.021355556
101	0xbd05e614	-0.032690123
102	0x3d1736d5	0.036917526
103	0x3d20b8d0	0.03923875
104	0xbb77ca5d	-0.0037809827
105	0x3de58469	0.11206896
106	0xbd14855f	-0.036260005
107	0x3d26e82c	0.04074876
108	0x3d3786d9	0.044806335
109	0x3ce9153a	0.028452504
110	0x3d762a9a	0.06009922
111	0xbd535f4e	-0.05160456
112	0x3d399d01	0.045315746
113	0x3db11da9	0.08648235
114	0x3d5118e7	0.05104914
115	0x3bb0577c	0.0053815227
116	0xbd18dec0	-0.037321806
117	0xbd7959ed	-0.060876776
118	0xbd179fc0	-0.037017584
119	0x3d47680f	0.048683222
120	0xbd32784d	-0.04357176
121	0x3d241773	0.040061425
122	0x3d8937c5	0.0670009
123	0xbb553a92	-0.0032536131
124	0xbd62c291	-0.055361334
125	0x3d25892f	0.04041403
126	0x3d0c460b	0.034246486
127	0x3be9e2c0	0.0071376264
128	0xbd11e062	-0.03561438
129	0x3dee2312	0.11627783
130	0xbd5f7d04	-0.054562584
131	0x3d69df69	0.057097826
132	0x3afeaab9	0.0019429541
133	0xbdbd66e7	-0.09248143
134	0x3bd72b81	0.0065664654
135	0x3c8811fd	0.01661014
136	0xbc04a9b9	-0.008097106
137	0xbd4eb5d9	-0.050466392
138	0x3d83bd3f	0.0643258
139	0xbd48958b	-0.04897074
140	0x3c58c376	0.013230195
141	0xbca8fb1f	-0.020627556
142	0xbb182ce8	-0.0023220126
143	0x3b8ce332	0.0042995447
144	0x3bb9cb09	0.0056699556
145	0xbd931b47	-0.07182937
146	0x3d521ad5	0.05129512
147	0x3d0ece6f	0.03486484
148	0x3d627569	0.055287752
149	0x3def2e2b	0.11678728
150	0xbd2a5c94	-0.041592196
151	0xbd8b69ef	-0.068073146
152	0xbcd4544e	-0.025919106
153	0x3e236edf	0.15960263
154	0xbb535662	-0.0032247533
155	0x3d8c1ab6	0.06841032
156	0x3d877913	0.0661489
157	0x3e01992e	0.1265609
158	0xbc1f333d	-0.009716806
159	0xbde47a03	-0.111560844
160	0xbd49005e	-0.049072616
161	0x3d01257f	0.0315299
162	0xbcc665d7	-0.024218483
163	0x3e1ebaba	0.15500918
164	0xbc70cc92	-0.014697211
165	0xbc012231	-0.007881687
166	0xbc95bbd5	-0.018278042
167	0xbe2f34a8	-0.1710993
168	0xbe0725cc	-0.13198012
169	0x3d6848a6	0.056709908
170	0x3c98a7d3	0.018634712
171	0x3c4216c9	0.011846253
172	0x3c14cb28	0.009081639
173	0xbcb012bc	-0.021493308
174	0x3ceadef5	0.028670767
175	0xbe099247	-0.13434707
176	0xbd902dd2	-0.070399895
177	0x3dc9b2f9	0.098485895
178	0x3c32ad5e	0.010905592
179	0x3dcca901	0.099931724
180	0x3cc688af	0.024235098
181	0xbda961a6	-0.08270578
182	0x3b83fe69	0.004028131
183	0xbe049ffe	-0.12951657
184	0xbdc0b7ae	-0.09410034
185	0xbcc80895	-0.024418155
186	0x3d04fbe2	0.032466777
187	0xbc6603e8	-0.014039017
188	0xbd2c1e27	-0.042020943
189	0xbe059514	-0.1304515
190	0x3cc201e6	0.023682546
191	0xbdbb60e8	-0.09149343
192	0xbb45e0a6	-0.0030193715
193	0x3e0acd1f	0.1355481
194	0x3d086cc0	0.033306837
195	0x3d0d03f0	0.034427583
196	0xbc430d93	-0.011905092
197	0xbc994407	-0.018709196
198	0x3b689668	0.003549004
199	0xbd306622	-0.04306615
200	0xbd54acdb	-0.05192266
201	0x3e019087	0.12652789
202	0x3c75a40c	0.014992725
203	0x3c02ca5f	0.007982819
204	0x3c6e0e26	0.01452974
205	0xbddf239b	-0.10895463
206	0x3c6e77fe	0.014554976
207	0xbc5ee50a	-0.013604412
208	0xbb70ee79	-0.0036763235
209	0x3c3e3c60	0.011611074
210	0xbce57380	-0.028009176
211	0x3d223a9c	0.039606676
212	0xbd8b4337	-0.067999296
213	0xbc0db722	-0.008649619
214	0xbd96f4ce	-0.073709115
215	0x3cd47786	0.0259359
216	0x3c6d61f7	0.014488689
217	0x3c8772a5	0.016534159
218	0x3c00d012	0.007862108
219	0x3d497909	0.049187694
220	0x3c2df6f5	0.010617961
221	0xbcc3bb99	-0.023893164
222	0x3cb1eccb	0.021719357
223	0xbd9cbacb	-0.076528154
224	0x3ca6a1bb	0.020340791
225	0xbe100737	-0.14065252
226	0x3ba7bc6f	0.0051188986
227	0x3b3e9422	0.0029079993
228	0xbd07cb14	-0.033152655
229	0xbdddc776	-0.1082906
230	0xbbaa94bd	-0.0052057193
231	0xbca0a782	-0.019611124
232	0xbdad7905	-0.08470348
233	0xbe2dd7ea	-0.16976896
234	0x3b9afbe4	0.0047297347
235	0x3d5f2c21	0.054485444
236	0xbde948a9	-0.11390812
237	0xbda5efb5	-0.08102361
238	0x3c9978a6	0.018734287
239	0x3cbf0dc9	0.023322003
240	0xbd3e8a2e	-0.046518497
241	0xbe2aecd0	-0.166919
242	0x3d04a3f9	0.03238294
243	0x3c0a552a	0.008443156
244	0xbdf8c5a3	-0.12147071
245	0xbd6be08a	-0.057587184
246	0xbcd9243b	-0.026506534
247	0xbd2923d6	-0.04129394
248	0xbdc10e9c	-0.09426615
249	0xbe4493d0	-0.19197011
250	0x3d61b9c1	0.05510879
251	0xbd8af1dd	-0.06784413
252	0x3c2a2dcb	0.010386894
253	0x3d56d889	0.052452598
254	0xbd43c36a	-0.047793783
255	0xbdcf7e33	-0.101314925

arith.constant1 f4 [10]
0	0x3bd454da	0.0064798417
1	0x3d3f11e1	0.04664791
2	0x3c8c3368	0.017114356
3	0xbc339f60	-0.010963291
4	0xbc1394e7	-0.009007669
5	0x3d6627cb	0.056190293
6	0xbc953343	-0.01821292
7	0x3d2226d8	0.039587826
8	0xbd9871d4	-0.07443586
9	0xbcc94ab5	-0.024571756

sequential_1/conv2d_1/convolution f4 [8, 3, 3, 1]
0	0x3d244403	0.040103924
1	0x3e92ee7b	0.2869757
2	0x3d480da7	0.048841145
3	0x3e1b2eb5	0.15154536
4	0x3eeae05e	0.45874304
5	0x3eb76fa0	0.3582735
6	0xbeb57feb	-0.35449156
7	0x3b90a0fe	0.004413723
8	0xbc69ab0b	-0.014261971
9	0x3eb374ad	0.35049954
10	0x3f250215	0.644563
11	0x3f5d32e1	0.8640576
12	0x3ef9b66f	0.48771998
13	0x3e918835	0.2842423
14	0xbda4d837	-0.08049052
15	0xbf85e5f4	-1.0460801
16	0xbf72e280	-0.9487686
17	0xbf102c1a	-0.56317294
18	0xbea37213	-0.3192297
19	0xbe28264e	-0.16420862
20	0xbe712b5d	-0.23551698
21	0x3d678f3e	0.05653309
22	0xbd322e71	-0.04350132
23	0xbeaed2b4	-0.3414513
24	0x3e206cbb	0.15666477
25	0x3e95dac1	0.29268458
26	0xbe87e191	-0.2653928
27	0xbcc2421c	-0.023713164
28	0xbd274e26	-0.040846013
29	0xbdd625e3	-0.10456445
30	0xbeb61db3	-0.35569534
31	0xbe28359b	-0.16426699
32	0x3ca3e7c5	0.020007977
33	0xbe6fa111	-0.23401286
34	0xbeafc0a4	-0.3432666
35	0xbdb712a0	-0.08939099
36	0x3f0a075a	0.5391747
37	0xbf1a1e16	-0.6020216
38	0xbf179026	-0.5920433
39	0x3f474d3d	0.7785223
40	0xbe880bca	-0.26571494
41	0xbe59ef6b	-0.21282737
42	0x3f020bd0	0.50799274
43	0x3d5e2500	0.054234505
44	0x3e6e9e06	0.23302469
45	0x3e9d21ed	0.30689946
46	0x3f16aa6c	0.58853793
47	0xbe74b3ff	-0.23896788
48	0x3f082b1e	0.5319079
49	0x3ea59f52	0.32348114
50	0xbf570bf2	-0.840026
51	0x3f29b14b	0.6628615
52	0xbeec62fa	-0.46169263
53	0xbed9582c	-0.42450082
54	0x3e9d35fe	0.30705255
55	0x3f008b73	0.5021278
56	0x3cb21c1f	0.021741925
57	0xbeb5ee36	-0.35533303
58	0x3d8b6e7b	0.06808182
59	0x3f0cbab7	0.54972404
60	0xbf077ae0	-0.5292187
61	0xbe31afc8	-0.17352211
62	0x3eea65c9	0.4578078
63	0xbe994620	-0.29936314
64	0x3d2931db	0.04130731
65	0x3e426293	0.18982916
66	0x3e954d6a	0.29160625
67	0x3f16b25b	0.588659
68	0x3e96ccdb	0.29453167
69	0x3e81dcca	0.2536376
70	0xbe6099cd	-0.2193367
71	0xbef0df6e	-0.47045463

sequential_1/conv2d_1/add;sequential_1/conv2d_1/convolution; f4 [8]
0	0x3e3d43b4	0.18482858
1	0xbd9839f5	-0.074329294
2	0xbeac35ef	-0.33634898
3	0xbf009ce3	-0.5023939
4	0x3cd627a2	0.026141945
5	0x3c98da0d	0.018658662
6	0x3dac6df7	0.08419412
7	0x3de2358b	0.11045369
